training/model.tflite (tflite, 742084 bytes, 16 tensors)

sequential_2/conv2d/Relu;sequential_2/conv2d/BiasAdd;sequential_2/conv2d/Conv2D;sequential_2/conv2d/BiasAdd/ReadVariableOp f4 [32, 3, 3, 3]
0	0xba0e7051	-0.00054336066
1	0x38af6cac	8.364892e-05
2	0x39e79170	0.00044168113
3	0xb9a0c6da	-0.00030665734
4	0xba07244e	-0.0005155251
5	0x3a0722af	0.00051550096
6	0x38d93d7f	0.00010358821
7	0xb84ff73b	-4.9582897e-05
8	0xb9f3c46d	-0.0004649492
9	0x3956738d	0.00020451676
10	0xb98fc36f	-0.00027420695
11	0xb8b46776	-8.60234e-05
12	0xb7ed26da	-2.8270693e-05
13	0x3988d16f	0.00026095982
14	0xb7ea52bb	-2.7933498e-05
15	0x3959d14d	0.00020772703
16	0xb9c0ca0d	-0.00036771633
17	0x3a022c52	0.00049657107
18	0xba07832b	-0.0005169387
19	0xb9d9d0d1	-0.00041545046
20	0xb9ebe50e	-0.00044993352
21	0xba139cce	-0.00056309707
22	0x39b5cbfb	0.00034674988
23	0x39d4003f	0.00040435974
24	0xba04ad63	-0.0005061237
25	0xb8e7d6b7	-0.00011054932
26	0x3853caa3	5.049504e-05
27	0x39325c3b	0.00017009761
28	0xb928d585	-0.00016101271
29	0xb9e8b52a	-0.00044385466
30	0xb9ab7878	-0.00032705418
31	0x39679d80	0.0002208855
32	0xb9ae7ba2	-0.0003327998
33	0xb9f29ce2	-0.00046274724
34	0x3668d477	3.4694365e-06
35	0xba105a7a	-0.0005506646
36	0x39c3dba7	0.00037356952
37	0xb9aecfbd	-0.00033342643
38	0x3880f18e	6.148509e-05
39	0x39ba7214	0.0003556168
40	0x3a0e9bfd	0.0005440114
41	0x39989f55	0.0002911041
42	0xb84bc20a	-4.8579685e-05
43	0xb9c4fb58	-0.000375713
44	0x39e2e447	0.0004327616
45	0xb94f0df4	-0.00019746256
46	0xb934e7eb	-0.00017252534
47	0xb83477d9	-4.302696e-05
48	0xb98e6152	-0.0002715686
49	0x393031db	0.0001680324
50	0x392d7738	0.00016542978
51	0xb9116ea6	-0.00013869497
52	0x38b1da8d	8.480726e-05
53	0xba17c078	-0.0005788873
54	0xb875b833	-5.85841e-05
55	0xb94c0c6c	-0.00019459584
56	0x397d859b	0.00024177732
57	0xb961c082	-0.00021529387
58	0xba28178d	-0.0006412201
59	0xb9a64685	-0.00031714528
60	0xb9c574e6	-0.00037661864
61	0x39150d8a	0.00014214791
62	0xba337720	-0.0006846059
63	0xb9892a3d	-0.00026162146
64	0xb9cd63cb	-0.00039174999
65	0xba203444	-0.0006111304
66	0xba0dc676	-0.0005408296
67	0x3805c969	3.189725e-05
68	0xb9c80e5b	-0.00038157668
69	0xb98421dd	-0.00025202232
70	0xb9fecef6	-0.00048600853
71	0x38e61d5c	0.00010972723
72	0x3855aedc	5.0946008e-05
73	0xb9a7b2a5	-0.00031985823
74	0x38847a84	6.317071e-05
75	0x3992677c	0.00027924392
76	0x38b9d5b7	8.861295e-05
77	0xb6b27cad	-5.3193276e-06
78	0x391a7fa6	0.00014734137
79	0xb92b8ec9	-0.00016361022
80	0xb9f5f9a8	-0.0004691605
81	0xb8055fe3	-3.1798972e-05
82	0xb9b724ec	-0.0003493199
83	0x38e018a4	0.00010685742
84	0x39e82dfe	0.00044284755
85	0xb8cb9f89	-9.70951e-05
86	0x39a47630	0.00031368574
87	0xba169e29	-0.00057456136
88	0x3979fbbd	0.0002384027
89	0x3983756e	0.0002507376
90	0xb9fff056	-0.00048816454
91	0x393f4d5a	0.00018243995
92	0xba2834eb	-0.0006416577
93	0x39bd148a	0.00036064192
94	0x3a065df8	0.0005125697
95	0xb9ee2920	-0.00045425538
96	0x39296346	0.00016154078
97	0x39d1bcb0	0.0004000417
98	0x39d9dc23	0.0004155348
99	0x398718c3	0.00025767655
100	0xba025ce2	-0.0004972947
101	0xb9f4a0ec	-0.00046659203
102	0x385c93f2	5.2589872e-05
103	0x3a0475ae	0.0005052936
104	0x3898457e	7.260869e-05
105	0xb8e97f3b	-0.00011134004
106	0x3a05a7ee	0.0005098571
107	0x39a6dd06	0.00031826663
108	0xb88f1c91	-6.824092e-05
109	0x385437b0	5.05966e-05
110	0x37fdad6b	3.0240704e-05
111	0x38877d2c	6.460617e-05
112	0xb9c3e0c4	-0.00037360762
113	0x3999ed5f	0.0002935929
114	0xb99fd705	-0.00030487045
115	0xba0e3a58	-0.0005425564
116	0xb67fd7e6	-3.812363e-06
117	0x3981d207	0.0002476128
118	0x392f59ea	0.00016722796
119	0x380f6af6	3.4193472e-05
120	0xb8025e17	-3.1082043e-05
121	0x39c5bb9b	0.00037714545
122	0x37b7091a	2.1819538e-05
123	0x36b08ce3	5.26161e-06
124	0xb8881937	-6.489682e-05
125	0x3977c767	0.00023630039
126	0x39098723	0.0001311568
127	0xb7d7244a	-2.5646896e-05
128	0xb9d51645	-0.00040643118
129	0xb7e0577a	-2.6743615e-05
130	0x395544fd	0.00020338963
131	0x39f177d9	0.00046056396
132	0x39e0c7e7	0.00042873548
133	0xb928faf5	-0.00016115217
134	0xb894e1b4	-7.0992304e-05
135	0x38840896	6.29585e-05
136	0x3884b9ff	6.328895e-05
137	0xb980d847	-0.00024575202
138	0x37dc9126	2.6293634e-05
139	0xb9c9d8b2	-0.00038499158
140	0xb88b6a29	-6.6478104e-05
141	0x38bbd411	8.956355e-05
142	0xba008544	-0.00049026706
143	0x39bd90a7	0.00036156664
144	0x39ad1aec	0.0003301719
145	0xba025bab	-0.0004972766
146	0x3941f4d9	0.00018497127
147	0xb8eecd51	-0.000113869675
148	0xb9edd284	-0.0004536101
149	0x39dc037e	0.00041964272
150	0xb89973b5	-7.3171606e-05
151	0x39b9c67f	0.0003543384
152	0xb9731257	-0.00023181118
153	0xb9915b00	-0.00027724355
154	0xb911bced	-0.00013898658
155	0xb6e306f7	-6.765938e-06
156	0xb8a77d66	-7.986538e-05
157	0xb9a5868b	-0.00031571495
158	0x39a24d90	0.00030956836
159	0xb9dc2bff	-0.0004199445
160	0x39bec27e	0.00036384532
161	0xb820921f	-3.828306e-05
162	0xba0e21ef	-0.00054219266
163	0x374f52db	1.2357453e-05
164	0x3a172f83	0.00057672727
165	0xb9e6bccb	-0.0004400968
166	0x392b1a0e	0.00016317537
167	0x3a14f7be	0.00056826684
168	0xba0d3aea	-0.0005387502
169	0xb95dada3	-0.00021140887
170	0xb9a38c16	-0.00031194155
171	0xba016930	-0.00049366336
172	0x38ab2220	8.160272e-05
173	0xb98fdae4	-0.00027438172
174	0xb9d79d21	-0.00041125066
175	0x3a04b4b5	0.0005062328
176	0x390e40d3	0.00013566324
177	0xb9123f62	-0.00013947257
178	0x39c5ad4e	0.0003770389
179	0x39e64a09	0.0004392418
180	0x3910c76f	0.00013807205
181	0xb9a469e2	-0.00031359406
182	0x3a268069	0.0006351532
183	0x39e8f77b	0.00044434876
184	0xb64cf4d3	-3.0540875e-06
185	0xb98e6fcb	-0.00027167643
186	0x38812fb5	6.1600855e-05
187	0x39669cb5	0.00021992887
188	0x3a28ae5a	0.0006434672
189	0x39469a64	0.00018940266
190	0x3a12d70f	0.0005601504
191	0xba1ec696	-0.0006056813
192	0xb9f40597	-0.0004654347
193	0x398c0a24	0.00026710436
194	0xb8cb529c	-9.6951815e-05
195	0x3854a233	5.06958e-05
196	0xb8f35efa	-0.00011604834
197	0xba065f64	-0.00051259086
198	0x3a10e4ad	0.00055272394
199	0x39c55894	0.00037640764
200	0xb985f43e	-0.0002554971
201	0x39ee9278	0.00045504025
202	0x39e74b57	0.00044115886
203	0xba0dbc3b	-0.00054067717
204	0x3986aab7	0.00025685664
205	0xb8123100	-3.4854747e-05
206	0xba0ffb6a	-0.00054924807
207	0x3925933d	0.00015790477
208	0x3921be55	0.0001542506
209	0xb9aee080	-0.00033355132
210	0xb8d3240b	-0.000100679776
211	0x39986ee2	0.00029074313
212	0xba29ac34	-0.00064724986
213	0x389a18b3	7.347893e-05
214	0x3a209212	0.0006125282
215	0x38d3e288	0.00010103459
216	0x3a3b26f4	0.00071392884
217	0xba061e7c	-0.0005116237
218	0xb84ae178	-4.8370537e-05
219	0xb988c07f	-0.00026083362
220	0x399cb094	0.000298862
221	0xb9e3c23e	-0.00043441536
222	0x3a1e0ded	0.0006029297
223	0xba05113c	-0.00050761155
224	0xb9ec1cab	-0.00045034787
225	0xb90953ec	-0.00013096601
226	0xb9d6b7d7	-0.00040954232
227	0xb9ea944e	-0.00044742454
228	0x39875c92	0.00025818177
229	0xb9b66f56	-0.00034796697
230	0xb90e4a74	-0.00013569911
231	0x39ef4274	0.00045635144
232	0xb73fedb1	-1.1439829e-05
233	0x39f69f04	0.00047039252
234	0x39cc6259	0.00038983187
235	0x3806fd8d	3.2184227e-05
236	0x39f7c065	0.00047254856
237	0x38b13781	8.450356e-05
238	0x381600ab	3.576341e-05
239	0x39991a7c	0.00029202166
240	0x39511e7a	0.00019943147
241	0xba1b5910	-0.0005926052
242	0x38e7968d	0.000110429806
243	0x3956779e	0.00020453191
244	0xb950167c	-0.00019844802
245	0x39c306af	0.00037198278
246	0x39cca78b	0.0003903474
247	0x39796515	0.00023784146
248	0x39b3250c	0.00034169143
249	0x39d54bb7	0.00040682938
250	0x39a70727	0.0003185805
251	0x39399e37	0.00017701914
252	0x39f0ff33	0.00045966505
253	0xb9afe50a	-0.00033549248
254	0x395c7ca5	0.00021027269
255	0x38d7486c	0.000102654885

sequential_2/conv2d/BiasAdd/ReadVariableOp f4 [32]
0	0xbc07eccd	-0.008296204
1	0xbc493994	-0.012281794
2	0xbcea5191	-0.028603347
3	0xbd495d71	-0.04916138
4	0xbdc4db70	-0.09612167
5	0xbc1331d4	-0.008984048
6	0xbd925af2	-0.07146253
7	0xbdc9086a	-0.09816058
8	0x3d06ac52	0.03287918
9	0xbdb8c6ea	-0.09022315
10	0xbcedb7e5	-0.029018352
11	0xbd56bf70	-0.052428663
12	0xbd85f01b	-0.06539937
13	0xbde6e23b	-0.11273619
14	0xbb4af2f7	-0.0030967572
15	0xbc97ba27	-0.018521382
16	0xbd0db4a8	-0.034596115
17	0x3cc406a5	0.02392895
18	0xbca455df	-0.020060478
19	0xbaebf22d	-0.0018001251
20	0xbd38ffc5	-0.045165796
21	0xbd595cd2	-0.053067036
22	0xbc1923b9	-0.009346896
23	0x3d8568a6	0.06514101
24	0x3c5b1f63	0.013374182
25	0xbbdd1b9d	-0.0067476765
26	0x3c021707	0.00794006
27	0xbe0946a9	-0.13405861
28	0xbd6c4752	-0.057685204
29	0xbd3c5a32	-0.045984454
30	0xbc219677	-0.009862534
31	0xbcd37895	-0.025814334

sequential_2/conv2d_1/BiasAdd/ReadVariableOp f4 [64]
0	0xbbee42f2	-0.007271164
1	0x3ced9b93	0.029004848
2	0xbbf586b5	-0.007492865
3	0xbcc3a149	-0.023880618
4	0x3cdeaeaf	0.027182905
5	0xbc853568	-0.016260818
6	0x3d117452	0.035511322
7	0xbcd6f522	-0.026239935
8	0xbdce1594	-0.100627095
9	0xbaff3d80	-0.0019473284
10	0xbdb43b5e	-0.08800386
11	0xbd0b9739	-0.034079764
12	0x3df17d20	0.11791444
13	0xbd6615c7	-0.056173112
14	0xbb4cd2b6	-0.0031253523
15	0xbca86971	-0.02055809
16	0x3d522f5f	0.051314708
17	0xbc67e1b3	-0.014152932
18	0xbd9331de	-0.07187246
19	0xbd0b922a	-0.03407494
20	0xbd90d1d3	-0.07071271
21	0xbd248bea	-0.040172495
22	0x3d97d945	0.07414488
23	0xbd17d4bb	-0.03706811
24	0x3d308d9a	0.04310379
25	0xbd1daef3	-0.038496923
26	0x3d9970f5	0.07492248
27	0xbc8e68fa	-0.017384041
28	0x3b8dbc28	0.0043254085
29	0xbcd7b2ea	-0.02633043
30	0x3dab9aeb	0.08379158
31	0xbc104ab4	-0.008806873
32	0xbc11ef36	-0.00890713
33	0xbc9b93c8	-0.018991366
34	0xbc9cd087	-0.019142402
35	0xbcda4e52	-0.026648674
36	0xbc5018b2	-0.0127012
37	0xbc4e7945	-0.012602155
38	0xbccb543c	-0.02482044
39	0x3b08b044	0.0020857016
40	0xbb04de3d	-0.0020274066
41	0x3c8a0642	0.016848687
42	0xba8a7922	-0.0010564665
43	0x3da92c79	0.082604356
44	0x3d131bdb	0.035915237
45	0xbd0562fb	-0.0325651
46	0x3d679d6c	0.056546614
47	0xbd563f56	-0.052306496
48	0xbcc371dc	-0.023858003
49	0xbd0c52ef	-0.03425878
50	0xbd55a7c4	-0.052161947
51	0xbd280f61	-0.04103029
52	0xbacd5cd5	-0.0015667925
53	0xbd729c71	-0.059231225
54	0xbc902b33	-0.017598724
55	0x3cd05824	0.025432654
56	0x3d6ea072	0.05825848
57	0x3b4cf0ed	0.0031271533
58	0x3cc66406	0.024217617
59	0xbc9490dc	-0.01813548
60	0xbc1ee1e8	-0.009697415
61	0xbd88b0ff	-0.06674384
62	0xbc229d95	-0.009925266
63	0xbcba225c	-0.022721462

sequential_2/conv2d_2/BiasAdd/ReadVariableOp f4 [64]
0	0xbc3acde3	-0.011401626
1	0xbc59cfd8	-0.013294183
2	0x3d13b27e	0.036058895
3	0xbc674ee9	-0.014117935
4	0xbd1da7ce	-0.03849011
5	0xbcd3a77a	-0.025836695
6	0xbbe617f0	-0.0070218965
7	0xbc91c622	-0.017794672
8	0xbd042792	-0.0322643
9	0xbc879b51	-0.016553553
10	0x39062bdd	0.00012795576
11	0x3c730d5b	0.014834727
12	0xbd044a33	-0.032297324
13	0xbd1ffe5b	-0.03906093
14	0xbd092379	-0.033481095
15	0x3bc3104a	0.0059528695
16	0xbd2d9d47	-0.04238632
17	0x3dc7d4eb	0.09757408
18	0xbcd8ddf6	-0.026473027
19	0x3c4c9822	0.012487443
20	0xbce815a0	-0.028330624
21	0xbd958905	-0.07301525
22	0xbd222b41	-0.03959203
23	0x3d278fb4	0.04090853
24	0xbc98402a	-0.018585283
25	0x3cdb8d02	0.026800636
26	0x3d2efb62	0.042720206
27	0xbc4020cf	-0.011726572
28	0xbd610375	-0.054934938
29	0xbd304c5d	-0.043041576
30	0x3da20d85	0.07912735
31	0xbcf8f24f	-0.03038898
32	0x3d9e863e	0.077404484
33	0xbd61577e	-0.05501508
34	0xbc571c90	-0.013129368
35	0xbcfbf71e	-0.030757483
36	0xbd3b07a9	-0.045661602
37	0x3d7471c8	0.059678823
38	0xbd818b33	-0.06325378
39	0xba74ae65	-0.0009333848
40	0xbd074876	-0.03302809
41	0xbce39a80	-0.027783632
42	0x3d1eec5c	0.03879963
43	0xbcb75bf1	-0.022382708
44	0xbd863ff2	-0.06555165
45	0x3dd2845b	0.10279151
46	0xbbf1f081	-0.0073834066
47	0xbd5a7902	-0.05333806
48	0x3dc154f3	0.09440031
49	0xbb6f3022	-0.0036497195
50	0xbdc5fb03	-0.09667017
51	0xbc7efc17	-0.015563033
52	0xbd08aed1	-0.033369843
53	0x3d8ec0ce	0.06970368
54	0xbd04b482	-0.03239871
55	0xbd2742c1	-0.040835146
56	0xbbfbae68	-0.007680703
57	0xbc4f49ea	-0.0126519
58	0x3ac409bc	0.0014956514
59	0x3d247ccd	0.04015808
60	0x3c9ad502	0.018900398
61	0xbc9fb9f3	-0.019497847
62	0xbd39ac93	-0.045330595
63	0x3dbaec83	0.09127142

sequential_2/conv2d_3/BiasAdd/ReadVariableOp f4 [64]
0	0x3b34db51	0.0027596543
1	0xbd075243	-0.033037435
2	0x3d4c9019	0.04994211
3	0xbdb98607	-0.09058767
4	0xbb1f8dde	-0.0024346034
5	0x3d4ce28d	0.050020743
6	0xbc17113a	-0.009220416
7	0xbd3b432f	-0.04571837
8	0x3d693a6a	0.056940474
9	0xbc238974	-0.009981502
10	0x3d382413	0.044956278
11	0xbba6b761	-0.0050877784
12	0x3de65e43	0.11248448
13	0xbbc54994	-0.006020734
14	0x3d85d5de	0.065349326
15	0x3d9a97dc	0.07548496
16	0xbc9a8d29	-0.018866139
17	0x3bf22e67	0.0073907855
18	0xbce10e57	-0.027472658
19	0x3c098122	0.008392604
20	0xbd909877	-0.0706033
21	0x3d84a112	0.06476034
22	0x3d8e7a4c	0.0695692
23	0xbc4676b0	-0.012113258
24	0x3d36dd71	0.044644777
25	0xbdd1506d	-0.10220418
26	0x3d61e62a	0.055151142
27	0xbcf38477	-0.02972625
28	0xbd0fea12	-0.035135336
29	0x3d4fedfb	0.050764065
30	0xbc11469f	-0.008866935
31	0xbcc1ac2f	-0.023641674
32	0xbd454d6a	-0.04816953
33	0x3dd94ea6	0.10610704
34	0xbc836d6a	-0.016043384
35	0x3dd56cb0	0.10421121
36	0xbd040cfc	-0.032238945
37	0x3d1d7682	0.038443096
38	0x3bc6d3e2	0.006067739
39	0x3cf1fb67	0.029538823
40	0x3d89cd12	0.06728567
41	0xbcb59bb9	-0.02216898
42	0x3cc44e93	0.023963248
43	0xbd17ffd2	-0.037109204
44	0xbcc0bb75	-0.023526886
45	0xbc5c7878	-0.013456456
46	0xbc799735	-0.0152338045
47	0xbd35c3a9	-0.04437605
48	0xbcd66de8	-0.026175454
49	0xbda958d7	-0.08268898
50	0xbd07235c	-0.032992706
51	0x3c4af682	0.012387874
52	0x3c01f99c	0.007933047
53	0xbaec62c8	-0.001803481
54	0x3e169ad2	0.14707497
55	0xbc06d635	-0.008229782
56	0x3ce5b46b	0.028040132
57	0xbc9afb89	-0.01891877
58	0xbd8dc01c	-0.069214076
59	0xbca53baa	-0.020170052
60	0xbc231271	-0.009953127
61	0xbb3ae96d	-0.002852048
62	0xba8bb1f5	-0.0010657894
63	0xbd42d64b	-0.047567647

sequential_2/conv2d_4/BiasAdd/ReadVariableOp f4 [64]
0	0xbcbfcb61	-0.023412408
1	0x3d8e1068	0.06936723
2	0xbd34c310	-0.04413134
3	0x3d0fb060	0.035080314
4	0xbc8582d9	-0.016297745
5	0xbc1cce9c	-0.009570744
6	0x3da7b564	0.081888944
7	0x3d586b8c	0.05283694
8	0x3cc249de	0.023716863
9	0xbccfa421	-0.025346817
10	0xbd8090cd	-0.062776186
11	0xbce20894	-0.027591981
12	0x3d9753f3	0.07389059
13	0x3d110062	0.035400756
14	0x3ce74868	0.028232768
15	0xbc3284eb	-0.010895948
16	0xbc84eb30	-0.016225427
17	0xbcad015b	-0.02111881
18	0xbcdf49b0	-0.027256817
19	0xbc462731	-0.012094305
20	0xbd57c957	-0.052682247
21	0xbd13a544	-0.03604628
22	0xbc995b41	-0.018720271
23	0x3b8c1549	0.0042749983
24	0xbc5c3dbc	-0.013442453
25	0x3da9fe2f	0.08300435
26	0x3c5d9372	0.013523923
27	0xbd943a49	-0.072376795
28	0xbcefff42	-0.029296521
29	0xbc4b2dd0	-0.012401059
30	0xbc9b3432	-0.018945787
31	0xbd1e866d	-0.038702417
32	0xbc84432a	-0.016145308
33	0x3d3b572a	0.045737423
34	0xbbe6d246	-0.0070441095
35	0xbd0a1aa9	-0.03371683
36	0xbcd51e6a	-0.02601548
37	0x3c7b7a67	0.015349007
38	0x3d334521	0.0437671
39	0xbd361a90	-0.044458926
40	0x37ff6228	3.0444076e-05
41	0xbd0bfdf9	-0.034177754
42	0x3c00fd48	0.007872887
43	0x3d820742	0.063490406
44	0xbd54ff70	-0.052001417
45	0x3daf4c23	0.08559444
46	0x3b5d1319	0.0033733307
47	0x3d231bb2	0.039821334
48	0xbc7e7483	-0.015530708
49	0xbcfa05a8	-0.030520275
50	0xb9f3210a	-0.00046373188
51	0xbbf3736d	-0.0074295313
52	0xba3bc3f4	-0.0007162683
53	0x3c93cab6	0.018040996
54	0x3c12b60c	0.008954536
55	0xbc8d42d7	-0.017243786
56	0xbc845e87	-0.016158355
57	0x3cbfd5a7	0.023417307
58	0xbc40958c	-0.011754405
59	0x3c81ca76	0.015843611
60	0xbaf08c25	-0.0018352313
61	0xbc00f182	-0.00787008
62	0xbcd537c1	-0.026027562
63	0xbd92f416	-0.07175462

sequential_2/conv2d_5/BiasAdd/ReadVariableOp f4 [64]
0	0x3d116d7e	0.03550481
1	0x3d57be00	0.052671432
2	0xbd087934	-0.033318713
3	0x3d0ef327	0.034899857
4	0x3c8edce5	0.017439315
5	0xbc81c109	-0.015839117
6	0xbd4000bc	-0.0468757
7	0x3b8e80a8	0.004348833
8	0xbc89d410	-0.016824752
9	0x3cde0167	0.027100278
10	0x3d10b3b5	0.035327632
11	0xbc1a451f	-0.009415894
12	0x3cbb1ce0	0.022840917
13	0xbceea1e4	-0.02912993
14	0xbcc7772f	-0.024348823
15	0x3c84a479	0.016191708
16	0xbb018dc4	-0.0019768337
17	0xbc0b04e1	-0.00848505
18	0xbcd845ac	-0.02640041
19	0x3cf3f08f	0.029777793
20	0x3d68c30b	0.056826632
21	0xbc29c248	-0.010361262
22	0xbc81bdae	-0.015837517
23	0x3d011215	0.031511385
24	0xbc1380da	-0.009002889
25	0x3a2d5127	0.0006611519
26	0xbbcb2956	-0.006199996
27	0xbcf1f220	-0.0295344
28	0xbc148680	-0.00906527
29	0xbc5dec33	-0.013545084
30	0xbccac7ca	-0.02475347
31	0x3d108ab9	0.035288546
32	0xbc8bbeb0	-0.0170587
33	0xbc87c948	-0.01657547
34	0x3d7bf98a	0.061517276
35	0x3bce58e1	0.0062972163
36	0x3d62650f	0.05527216
37	0x3d6b21a1	0.057405118
38	0x3cd1f72a	0.025630552
39	0xbc8fe351	-0.017564448
40	0x3ca6b391	0.020349296
41	0xbc231e74	-0.009955991
42	0x3d7bf112	0.0615092
43	0xbbd49ed7	-0.0064886617
44	0xbc25686e	-0.010095699
45	0xbced5a20	-0.028973639
46	0xbc8aa327	-0.0169235
47	0xbd8dc8c2	-0.06923057
48	0x3d92a85e	0.0716102
49	0xbcc7fb1d	-0.024411732
50	0x3c827f4a	0.015929837
51	0xbb3e3ff8	-0.0029029828
52	0xbc717f12	-0.014739769
53	0xbbe7e8c6	-0.0070773093
54	0xbbcc4e45	-0.0062349164
55	0xbc42c96d	-0.011888844
56	0xbc37f33e	-0.011227427
57	0x3b9da304	0.0048106927
58	0x3d0a1bcd	0.03371792
59	0xbbd1312d	-0.006384036
60	0xbcdcf6f9	-0.026973234
61	0xbc0a74b8	-0.0084506795
62	0xbca41043	-0.020027285
63	0xbc044a6c	-0.008074384

sequential_2/conv2d_1/Conv2D f4 [64, 3, 3, 32]
0	0xbd04f97e	-0.032464497
1	0x3d2b8bb9	0.041881297
2	0xbd3cb839	-0.046074126
3	0xbc814651	-0.0157806
4	0x3d89700e	0.06710826
5	0xbcfbfb00	-0.030759335
6	0xbdb8ae44	-0.090176135
7	0x3d1582e2	0.036501773
8	0x3da0d5ee	0.07853304
9	0x3d137bef	0.036006864
10	0xbdeac8a1	-0.11464048
11	0x3d000d7f	0.03126287
12	0xbdc3f0b6	-0.09567396
13	0x3cc453ad	0.023965681
14	0xbd7b7ec1	-0.06140018
15	0xbcbcb030	-0.023033231
16	0xbdb55975	-0.08854953
17	0xbdae9664	-0.085247785
18	0x3d87ba28	0.06627303
19	0xbd28977e	-0.0411601
20	0xbdbfea2a	-0.09370835
21	0xbd00189c	-0.03127347
22	0x3ca445be	0.020052787
23	0x3b6910eb	0.0035563062
24	0xbdc6deba	-0.097104505
25	0x3d77d99e	0.06051027
26	0x3e1755b2	0.14778784
27	0x3d3af70a	0.04564575
28	0xbd81e300	-0.06342125
29	0xbbf94780	-0.0076074004
30	0xbd87f7fb	-0.066390954
31	0x3d7155e1	0.05891979
32	0x3d0a8f48	0.03382805
33	0x3d5eaf9c	0.054366693
34	0xbd59a34f	-0.05313426
35	0x3d77aedc	0.060469493
36	0xbcac7e99	-0.02105646
37	0x3c46874a	0.012117216
38	0xbe007875	-0.1254595
39	0xbd05c915	-0.03266247
40	0x3dcbcfb4	0.099517256
41	0x3d1a7c01	0.037715916
42	0x3c837c66	0.016050529
43	0xbdc5625f	-0.096379034
44	0xbcf2c764	-0.029636092
45	0x3daa2d1f	0.083093874
46	0xbe2ef6ff	-0.17086409
47	0xbcb58163	-0.022156423
48	0x3ad56c6d	0.0016282924
49	0xbdfb2f22	-0.12264849
50	0x3ca8f8cf	0.020626454
51	0x3bf73356	0.0075439615
52	0xbd3c91af	-0.046037372
53	0xbd3d8e46	-0.04627826
54	0x3d34a253	0.044100117
55	0x3d41c83e	0.047310106
56	0x3c6f3bb0	0.014601633
57	0x3d5d1535	0.053975303
58	0x3d8eeb97	0.06978529
59	0xbd9f9e07	-0.07793813
60	0x3d2b2b2c	0.04178922
61	0xbd443b8f	-0.047908362
62	0x3bd3d7bf	0.006464928
63	0x3c4bc889	0.012437948
64	0xbd346162	-0.044038184
65	0x3caa99fc	0.020825379
66	0x3cf3d7a6	0.029765915
67	0x3d538590	0.051641047
68	0x3c07b2b1	0.008282349
69	0xbd892237	-0.06695979
70	0xbda359fb	-0.07976147
71	0xbd44f59f	-0.048085805
72	0xbab18e17	-0.0013546374
73	0x3c42736d	0.01186834
74	0x3cc9984c	0.024608754
75	0xbd7a58e5	-0.061119933
76	0xbc55885f	-0.013033002
77	0x3d8531d4	0.065036446
78	0xbe1850d2	-0.1487458
79	0x3d354faf	0.044265445
80	0xbd561135	-0.052262504
81	0x3c838eda	0.016059328
82	0xbca934f1	-0.020655127
83	0xbdd5e9f7	-0.10445016
84	0xbcdbe666	-0.026843261
85	0xbd9a8ef1	-0.07546795
86	0xbd9c9e74	-0.0764741
87	0xbd894435	-0.067024626
88	0x39b113d6	0.0003377485
89	0x3dd11f83	0.102110885
90	0x3ddacac2	0.10683204
91	0x3cbd038c	0.02307298
92	0xbc8db99b	-0.017300418
93	0xbd737b7d	-0.05944394
94	0xbd8ccb31	-0.06874693
95	0x3c651fe6	0.013984656
96	0xbc6128e7	-0.013742662
97	0x3c6f81a8	0.014618315
98	0xbca94d84	-0.020666845
99	0xbd956193	-0.072940014
100	0x3ceb715c	0.028740577
101	0xbcd2e996	-0.025746148
102	0xbdd43f85	-0.10363678
103	0x3c9634b2	0.018335674
104	0x3d9b5f6f	0.07586562
105	0x3d742591	0.05960614
106	0xbd5b140c	-0.053485915
107	0x3d31fdd2	0.043454953
108	0xbd78eb3d	-0.060771216
109	0xbd3fa1cc	-0.04678516
110	0xbe4bab4e	-0.19889566
111	0x3d8f1a62	0.06987454
112	0xbc440565	-0.011964177
113	0xbc78a91d	-0.0151770385
114	0x3d7a6eba	0.061140753
115	0x3b85668b	0.004071062
116	0xbcf408ff	-0.029789446
117	0xbbad1c70	-0.005282931
118	0x3d8ae74a	0.06782396
119	0xbd0bd019	-0.034134004
120	0xbdc1f616	-0.09470765
121	0x3dd254ed	0.102701046
122	0x3de0e75f	0.109816305
123	0xbd61cc98	-0.055126756
124	0xbd3e7a98	-0.046503633
125	0xbb1ff752	-0.002440889
126	0xbd7b4c88	-0.061352283
127	0xbd8694f0	-0.06571376
128	0x3d3ee694	0.046606615
129	0xbd46b64a	-0.04851369
130	0xbd4f4682	-0.05060435
131	0x3b31bea4	0.0027121687
132	0x3ce32477	0.027727349
133	0x3d91e5f4	0.07123938
134	0xbe64fbb2	-0.22361639
135	0xbcb5e622	-0.022204462
136	0x3e063809	0.13107313
137	0x3d498161	0.04919565
138	0xbdd0fbca	-0.10204275
139	0x3d5a17f1	0.05324549
140	0x3d4e4cfa	0.05036638
141	0x3ad90d93	0.0016559832
142	0xbe59add5	-0.21257718
143	0x3d14e8d7	0.036354866
144	0x3d3a7b6e	0.045527868
145	0xbc84c370	-0.016206473
146	0x3d29b049	0.041427884
147	0xbd8c2411	-0.068428166
148	0x3d8b51f9	0.068027444
149	0xbdf813c4	-0.12113145
150	0x3d71ee0f	0.05906492
151	0xbdad4a58	-0.084614456
152	0xbb9f2854	-0.0048571024
153	0x3d9e9c22	0.07744624
154	0x3d718bbb	0.058971148
155	0xbdb4d65d	-0.08829949
156	0x3ca53907	0.020168794
157	0xbd06c353	-0.03290112
158	0xbcd863f6	-0.026414853
159	0x3ca62685	0.02028204
160	0x3d40fc3d	0.047115553
161	0xbd09af38	-0.033614367
162	0x3c440b13	0.011965531
163	0x3d03e890	0.03220421
164	0x3d6a5602	0.05721093
165	0x3cfc7364	0.030816741
166	0xbd97ac06	-0.07405858
167	0xbca78c30	-0.020452589
168	0x3db92fc1	0.090423115
169	0xbd38f15c	-0.045152053
170	0xbdfa206d	-0.12213216
171	0x3b719305	0.0036861312
172	0xbd411fe0	-0.04714954
173	0x3d05b68b	0.03264479
174	0xbdd8d8b9	-0.105882116
175	0xbcacf3a2	-0.021112267
176	0x3ce0aa98	0.027425095
177	0xbde5d2ee	-0.11221872
178	0x3c51fb23	0.012816223
179	0xbcabeede	-0.020987924
180	0xbd5fa867	-0.05460396
181	0xbd8d0fa3	-0.06887748
182	0xbcd48419	-0.025941895
183	0xbd5acce7	-0.053418066
184	0xbe02633a	-0.12733164
185	0x3dc59956	0.09648387
186	0x3e0dcf12	0.13848522
187	0xbd533ea1	-0.0515734
188	0x3acb00ef	0.0015487949
189	0x3da6ea2f	0.08150136
190	0x3cc3e141	0.02391112
191	0xbd43543b	-0.04768775
192	0x3c134507	0.008988625
193	0xbd401657	-0.046896305
194	0x3d8c7e75	0.06860057
195	0xbd4be8a5	-0.049782414
196	0x3c160232	0.009155797
197	0x3cba8152	0.022766743
198	0xbdf6cb2f	-0.12050473
199	0x3d816e75	0.06319896
200	0x3d9adc29	0.075615235
201	0xbc4a2661	-0.012338252
202	0x3cb2dee0	0.02183479
203	0xbc66c53e	-0.014085112
204	0xbb361dee	-0.0027788836
205	0x3c130375	0.008972992
206	0xbe050986	-0.12991914
207	0x3d9a353a	0.075296834
208	0xbdd00f4b	-0.10159167
209	0xbc73aead	-0.014873189
210	0x3d24c1bc	0.040223822
211	0xbd2cf397	-0.042224493
212	0xbc8eee7e	-0.017447706
213	0xbd037e04	-0.0321026
214	0xbb49fb56	-0.0030819974
215	0x3b8faf0a	0.00438488
216	0xbdaa4d70	-0.08315551
217	0xbd053261	-0.03251875
218	0x3ddfa077	0.10919278
219	0x3d027746	0.03185203
220	0x3d76c6f3	0.060248327
221	0x3bf9023c	0.0075991433
222	0x3c7dee11	0.015498654
223	0x3cedb212	0.029015575
224	0xbc85d678	-0.016337618
225	0xbd74f7f2	-0.05980677
226	0x3d911cfd	0.07085607
227	0x3cb18d1c	0.021673732
228	0xbd58a54a	-0.052892007
229	0x3c2e4b73	0.010638106
230	0xbdcc3c95	-0.099724926
231	0x3d7f4b3d	0.062327612
232	0xbc5a6379	-0.01332938
233	0xbd679fc1	-0.056548838
234	0x3d25d836	0.040489398
235	0xbda08c63	-0.07839277
236	0xbd9562a9	-0.072942086
237	0xbc0c8f49	-0.008579084
238	0xbe4be765	-0.19912489
239	0x3d36cd30	0.044629276
240	0xbd4f7633	-0.050649833
241	0xbe083330	-0.13300776
242	0x3d97aa26	0.074055
243	0xbe04abd2	-0.12956169
244	0xbcdd72eb	-0.027032336
245	0xbd1c68e1	-0.038185958
246	0xbcf99891	-0.030468257
247	0x3a341374	0.0006869354
248	0xbdb0d5dd	-0.08634541
249	0x3d90d889	0.07072551
250	0x3e28075c	0.16409057
251	0x3d4d19aa	0.050073303
252	0x3c2891e5	0.01028869
253	0x3d850515	0.0649511
254	0xbd274337	-0.040835585
255	0xbb8bd6a0	-0.0042675287

sequential_2/conv2d_2/Conv2D f4 [64, 3, 3, 64]
0	0x3cbb7e3c	0.022887342
1	0xbd75efef	-0.06004327
2	0x3b077aaa	0.0020672479
3	0x3c63d8da	0.013906682
4	0x3cc18465	0.023622701
5	0xbc0c119b	-0.008549119
6	0xbd8e4b98	-0.06948012
7	0x3d4dabb9	0.050212596
8	0x3bbb21f0	0.005710833
9	0x3d271a8e	0.04079681
10	0xbd41135b	-0.0471376
11	0x3c0d8b13	0.008639115
12	0x3d24d190	0.040238917
13	0x3d1e8d93	0.038709234
14	0xbcb95e0e	-0.022627857
15	0xbd4af9cf	-0.049554642
16	0x3d59eed2	0.053206272
17	0xbd4bf67a	-0.049795605
18	0xbc9a552d	-0.018839443
19	0xbcd04152	-0.025421772
20	0xbd94af30	-0.07259977
21	0xbdc16ea0	-0.09444928
22	0xbd053f9f	-0.032531377
23	0x3d593e78	0.05303809
24	0x3c4b5851	0.012411193
25	0x3b58a5d0	0.0033057816
26	0x3d455210	0.048173964
27	0x3d71b448	0.05900982
28	0xbd84950e	-0.064737424
29	0xbd8e75be	-0.06956051
30	0xbd286254	-0.041109398
31	0x3d5d6e2e	0.054060154
32	0x3d88b941	0.066759594
33	0x3c16c43f	0.009202062
34	0xbd56e691	-0.05246598
35	0x3d2ea56e	0.042638235
36	0xbd5e2a9f	-0.054239865
37	0xbd03dd44	-0.032193437
38	0xbd921f93	-0.071349286
39	0xbcc882a2	-0.024476353
40	0x3d36f476	0.04466673
41	0xbd64e404	-0.055881515
42	0x3ced01ea	0.028931577
43	0x3cfde5ff	0.03099346
44	0xbd882d93	-0.066493176
45	0xbd4ebc30	-0.05047244
46	0xbd4376bf	-0.047720667
47	0x3d233659	0.03984675
48	0xbcbd04a4	-0.023073502
49	0x3cbf09bf	0.023320077
50	0xbd5e2117	-0.054230776
51	0x3d7f1ee4	0.06228532
52	0x3a56c5e2	0.0008192939
53	0x3d76d8ae	0.060265236
54	0x3c88ae44	0.016684659
55	0xbcd2dfb1	-0.02574143
56	0xbd1799df	-0.037011977
57	0xb9f81ec2	-0.00047325162
58	0x3d1e3e20	0.038633466
59	0x3cb15538	0.02164708
60	0x3b9bfc68	0.004760314
61	0x3c6b4bf2	0.0143613685
62	0xbd8c914b	-0.0686365
63	0x3d53c2d8	0.05169949
64	0xbc9fa1e0	-0.019486368
65	0x3c9ca536	0.019121747
66	0xbd291ee3	-0.04128922
67	0x3d0f7d5e	0.03503167
68	0xbc9c4eaf	-0.019080488
69	0xbb8e74c9	-0.004347418
70	0x3c941011	0.018074067
71	0xbd0a47ea	-0.03375999
72	0xbd6bd660	-0.05757749
73	0xbd1c7ef3	-0.038207006
74	0xba28fba8	-0.0006446191
75	0xbd944d2b	-0.07241281
76	0xbd8984fd	-0.067148186
77	0x3be46777	0.006970342
78	0x3c76f468	0.015072919
79	0x3d1baaab	0.03800456
80	0xbc3e7164	-0.011623714
81	0x3d50686f	0.050880846
82	0xbd8787a3	-0.066176675
83	0x3c86cdce	0.016455557
84	0xbce11cf2	-0.027479623
85	0xbdacf019	-0.084442325
86	0xbd37f2ba	-0.044909216
87	0x3c8747ec	0.016513787
88	0xbd6c39fb	-0.057672482
89	0xbd684407	-0.0567055
90	0xbbd8edc5	-0.006620141
91	0x3d28ec78	0.04124114
92	0xbd6931e7	-0.056932356
93	0xba8fe0eb	-0.0010977065
94	0xbd40a84d	-0.047035504
95	0xbd0ce377	-0.034396615
96	0x3d9f4f44	0.077787906
97	0xbd65d99f	-0.056115743
98	0x3c9c16fd	0.01905393
99	0xbca9467c	-0.020663492
100	0xbc32209e	-0.010872034
101	0x3d6df745	0.058097143
102	0xb9a05eae	-0.0003058812
103	0x3c4013df	0.011723488
104	0x3b75df4b	0.0037517126
105	0x3a477800	0.0007609129
106	0xbbb8b6c3	-0.0056370213
107	0xb99eaf95	-0.00030266927
108	0x3cea9350	0.028634697
109	0x3d2cb145	0.042161245
110	0x3d3c19d7	0.04592308
111	0x3c41165a	0.011785114
112	0x3d595d04	0.053067222
113	0xbcbfc1b1	-0.023407789
114	0xbd063e69	-0.032774363
115	0x3d7951e7	0.060869124
116	0x3cf162b2	0.029466007
117	0xbd77cdcf	-0.06049901
118	0xbd83e31b	-0.06439801
119	0xbd2b45ea	-0.041814722
120	0xbc948a03	-0.018132215
121	0xbcd96c03	-0.026540762
122	0x3d37df6c	0.044890806
123	0x3d6bd873	0.05757947
124	0xbd040025	-0.0322267
125	0xbc224d4d	-0.009906125
126	0x3d7828c7	0.060585763
127	0xbd8d77a4	-0.06907585
128	0xbc140fe1	-0.009036989
129	0xbd7995ea	-0.060933985
130	0xbd6f6311	-0.058444086
131	0x3ca24839	0.01980983
132	0xbc362934	-0.011118222
133	0xbd06f657	-0.03294977
134	0x3d6f7a4d	0.058466244
135	0xbc8215da	-0.01587956
136	0xbabe68e8	-0.0014527114
137	0x3b16f351	0.0023033211
138	0x3a8f9147	0.001095333
139	0x3d2f7692	0.042837687
140	0xbd6c166e	-0.057638578
141	0x3c38e82c	0.011285823
142	0x3b9c41de	0.004768594
143	0x3d8370ca	0.06417997
144	0x3cb6c9b1	0.02231297
145	0x3c631912	0.013860958
146	0x3bee6762	0.007275508
147	0x3cb76a1b	0.022389462
148	0x3d847827	0.0646823
149	0xbca96d0e	-0.020681884
150	0xbd84a819	-0.064773746
151	0x3d2b4174	0.041810468
152	0xbd6e7382	-0.058215626
153	0xbd449108	-0.047989875
154	0xbd95a525	-0.073068894
155	0x3ce8b20c	0.028405212
156	0xbbb2a3b1	-0.0054516424
157	0x3d1304df	0.035893317
158	0xbc462b22	-0.012095245
159	0xbd8723f9	-0.06598658
160	0xbcd6b644	-0.026209958
161	0x3b5a67ee	0.0033326107
162	0xbd4b554e	-0.0496419
163	0x3d8b267a	0.06794448
164	0xbd7ccc76	-0.061718427
165	0x3d842666	0.064526364
166	0x3d58d3fd	0.052936543
167	0x3d73a158	0.05948004
168	0xbd448d80	-0.047986507
169	0xbd1ca185	-0.038239975
170	0x3c6bc45e	0.014390079
171	0x3d191fa2	0.037383683
172	0x3ca18ce4	0.019720502
173	0x3c64dc0f	0.013968482
174	0x3c328c79	0.010897749
175	0xbd5629b0	-0.05228585
176	0x3d24e6e3	0.040259253
177	0xbd21d20f	-0.039506968
178	0x3cc95970	0.02457878
179	0xbd7552e8	-0.05989352
180	0xbd4c1062	-0.04982031
181	0xbd213bbe	-0.039363615
182	0x3d0c6967	0.034280207
183	0x3d13977a	0.03603313
184	0x3c150c79	0.009097212
185	0xbd15d1ec	-0.03657715
186	0xbda2fcab	-0.07958349
187	0x3c0956a0	0.008382469
188	0x3d82230b	0.0635434
189	0x3d79501f	0.060867425
190	0xbd5727b5	-0.052528102
191	0x3cd9cc87	0.026586784
192	0xbb440b46	-0.0029913946
193	0x3cc2d4a2	0.023783032
194	0xbd03f68d	-0.03221755
195	0x3d8ec66a	0.06971438
196	0xbd574b92	-0.052562304
197	0xba7baa9d	-0.00096003135
198	0x3c4d1677	0.012517563
199	0xbd7c290c	-0.061562583
200	0xbd8d3ee0	-0.06896758
201	0x39f03ca3	0.00045821545
202	0x3baddfc0	0.005306214
203	0x3b2ff44a	0.0026848488
204	0xbcb27d00	-0.02178812
205	0xbb12ba46	-0.002238886
206	0xbd8f5ba8	-0.06999904
207	0xbc14046b	-0.009034256
208	0xbca5f9d3	-0.020260727
209	0x3d015efa	0.031584717
210	0x3d0968b8	0.033547133
211	0x3d87278b	0.06599339
212	0x3c797ea1	0.015227945
213	0xbdb6082e	-0.08888279
214	0xbcd859d3	-0.026410019
215	0xbc2988a4	-0.010347519
216	0xbc572710	-0.013131872
217	0x3d4c0ad3	0.04981501
218	0xbd469b31	-0.048487846
219	0xbba49ead	-0.0050237984
220	0xbc82a7cf	-0.015949158
221	0xbd999b15	-0.07500283
222	0xbc0e6b1b	-0.008692528
223	0xbd0a1e42	-0.033720262
224	0x3cfdb738	0.030971155
225	0xbd75f060	-0.060043693
226	0x3cca8f17	0.024726434
227	0xbd1669fa	-0.03672216
228	0xbd240c73	-0.040050935
229	0x3cb49e9b	0.022048285
230	0x3c86bef5	0.016448477
231	0xbd85287f	-0.06501865
232	0xbca71f42	-0.020400647
233	0xbd53172b	-0.051535767
234	0xbd1bfaf9	-0.038081143
235	0xbc6c41d6	-0.014419993
236	0xbbc6bc42	-0.0060649225
237	0xbd8988c5	-0.0671554
238	0xbd8e1902	-0.069383636
239	0xbd26bc50	-0.040706933
240	0xbd3194d8	-0.04335484
241	0x3d0f2400	0.03494644
242	0xbd99e9e5	-0.07515315
243	0xbd1d2a97	-0.038370695
244	0xbd0cc3d2	-0.034366436
245	0xbd7e15b7	-0.062032428
246	0xbd4b9ae8	-0.049708277
247	0xbd355dea	-0.044279017
248	0x3d587c65	0.052853007
249	0xbcf2b142	-0.029625539
250	0xbc72a214	-0.01480915
251	0x3d7dae5a	0.061933853
252	0xbd0387f6	-0.032112084
253	0xbd65238a	-0.055942096
254	0x3d41e200	0.04733467
255	0xbc07e658	-0.008294664

sequential_2/conv2d_3/Conv2D f4 [64, 3, 3, 64]
0	0x3c446a88	0.01198829
1	0xbd0d08f4	-0.034432366
2	0xbd8fcb06	-0.070211455
3	0x3d39f970	0.045403898
4	0xbb880cd9	-0.004151922
5	0xbd4ed28f	-0.050493773
6	0x3d9dd70d	0.07707033
7	0x3d27d515	0.040974695
8	0xbd94d67a	-0.07267471
9	0xbbf99d4b	-0.0076176277
10	0xbd8b8f9a	-0.06814499
11	0x3d499386	0.049212955
12	0x3d79ed05	0.061017055
13	0x3d4d9d50	0.050198853
14	0xbcd76144	-0.026291497
15	0xbcd2362c	-0.025660597
16	0xbca7cb09	-0.020482557
17	0xbd13129f	-0.03590643
18	0x3d956606	0.0729485
19	0x3d568365	0.0523714
20	0xbd45ebb7	-0.0483205
21	0xbd840467	-0.06446152
22	0x3d5a2354	0.053256348
23	0x3d085571	0.03328461
24	0xbd3dd57a	-0.046346165
25	0xbd59a0b3	-0.05313177
26	0x3d119766	0.035544775
27	0x3d325801	0.04354096
28	0xbd687830	-0.056755245
29	0x3d631bf9	0.0554466
30	0xbc8ba15a	-0.017044712
31	0x3d826a15	0.0636789
32	0xbb9dedb9	-0.0048195985
33	0xbd543114	-0.051804617
34	0xbd8bdea7	-0.06829577
35	0x3d504252	0.050844498
36	0xbd8ec735	-0.069715895
37	0xbd39d4e9	-0.045369063
38	0xbd85a950	-0.065264344
39	0x3aee9274	0.0018201605
40	0x3d0a2d05	0.03373434
41	0x3b38354c	0.002810794
42	0xbc5f690e	-0.013635887
43	0x3d4b1602	0.049581535
44	0x3d0e51e5	0.03474607
45	0xbd1ba75a	-0.038001396
46	0xbb231645	-0.00248851
47	0x3d32b3d6	0.043628536
48	0x3cced4da	0.02524798
49	0xbccd5a28	-0.025067404
50	0x3cb55f82	0.022140268
51	0xbd454a30	-0.048166454
52	0x3c35d04a	0.011097023
53	0xbb7353fe	-0.003712892
54	0x3b58d117	0.0033083612
55	0x3bb6ed8e	0.005582518
56	0xbd146414	-0.036228254
57	0xbc9a71a5	-0.018853018
58	0x3b0b0759	0.0021214096
59	0x3a8ecbbf	0.0010894461
60	0xbd93d189	-0.072177
61	0xbd9f5236	-0.07779352
62	0xbcae11bc	-0.02124869
63	0x3d42c22b	0.047548454
64	0xbd732bf2	-0.05936808
65	0xbd006ae7	-0.03135195
66	0x3ccef7d9	0.025264667
67	0x3d4603a8	0.04834333
68	0xbb6ffae4	-0.0036618048
69	0xbd70440d	-0.05865865
70	0xbd7f4b27	-0.06232753
71	0xbd6c6bda	-0.057720043
72	0x3d182cfa	0.037152268
73	0xbc6dbacd	-0.014509869
74	0x3c449b7c	0.011999961
75	0xbd6b54bd	-0.05745386
76	0x3c7ffc39	0.015624099
77	0xbd597039	-0.05308554
78	0xbd238cb9	-0.039929125
79	0xbd95b15a	-0.07309218
80	0xbce6f384	-0.02819229
81	0xbc5d2a90	-0.013498917
82	0xbd316a8b	-0.043314498
83	0xbd961dff	-0.0732994
84	0x3d814e3c	0.0631375
85	0x3cc28f29	0.023749905
86	0x3cf5a31d	0.029985005
87	0xbd5193f1	-0.05116648
88	0xbd15d395	-0.036578733
89	0x3d18730d	0.037219096
90	0xbd44999d	-0.04799806
91	0xbcfff6a5	-0.031245539
92	0xbd974163	-0.073855184
93	0xbd0fc7dd	-0.035102714
94	0xbd7c7b10	-0.0616408
95	0x3d0bace9	0.034100447
96	0x3d1bce5e	0.038038604
97	0x3d3c48da	0.045967914
98	0x3d5ef9b1	0.054437343
99	0xbd7986df	-0.06091964
100	0x3c0393c7	0.008030838
101	0xbda3350d	-0.07969103
102	0x3cc04574	0.023470618
103	0xbd3bd9f6	-0.04586216
104	0xbc6cf26a	-0.014462093
105	0xbcfe3cd4	-0.031034864
106	0x3c3e8cfa	0.011630291
107	0xbd4c296f	-0.0498442
108	0x3d1af8bf	0.03783488
109	0x3cdd5fc6	0.027023207
110	0x3c1c30a8	0.009533085
111	0xbd49d224	-0.04927267
112	0x3bfbe956	0.007687728
113	0x3d351d77	0.044217553
114	0x3be65e17	0.0070302594
115	0x3cb22e14	0.021750487
116	0xbb8c64bb	-0.004284469
117	0x391d6e9f	0.00015013896
118	0x3b50bb33	0.003184986
119	0xbd75271c	-0.05985175
120	0x3d149213	0.03627212
121	0xbc8ad0aa	-0.016945202
122	0x3d25ad58	0.040448517
123	0xbdb5f6c1	-0.08884955
124	0xbd24467e	-0.04010629
125	0x3c99c4a4	0.018770523
126	0x3cc26303	0.023728853
127	0xbd465da0	-0.04842913
128	0xbd6d5096	-0.05793818
129	0x3d3c708b	0.046005767
130	0x3b09acba	0.0021007494
131	0xbd01d019	-0.031692598
132	0x3d63fee4	0.055663005
133	0x3c0f4ca1	0.008746297
134	0x3ce1a69b	0.027545264
135	0x3d9c897a	0.07643409
136	0x3cd5f964	0.026119895
137	0xbd44f2c2	-0.048083074
138	0x3d4db8a4	0.050224915
139	0xbd5478ac	-0.051872894
140	0xbd44fb8a	-0.04809145
141	0x3d30e1d1	0.043184105
142	0xbd7921c2	-0.06082321
143	0xbd1ee413	-0.038791727
144	0x3d3fc3dd	0.04681765
145	0xbcb9f28b	-0.022698661
146	0x3cb377f0	0.021907777
147	0xbaeb087f	-0.0017931609
148	0xbd85f0ce	-0.065400705
149	0xbdc19420	-0.09452081
150	0xbcbd40b2	-0.023102138
151	0xbcfd44a9	-0.030916529
152	0xbcfc69a8	-0.0308121
153	0xbd0fb885	-0.03508808
154	0x3d8f8581	0.07007886
155	0x3ccdfc0f	0.025144605
156	0x3bc70177	0.0060731727
157	0xbc1ccc14	-0.00957014
158	0xbb8a3831	-0.0042181243
159	0x3cb32984	0.021870382
160	0xbd396e61	-0.04527128
161	0x3d4989b9	0.04920361
162	0x3cec22b2	0.028825138
163	0xbc768b05	-0.015047793
164	0xbd260c87	-0.04053929
165	0xbc41d5af	-0.011830731
166	0x3d17cbf4	0.03705974
167	0xbc4e8b73	-0.0126064895
168	0xbd0df568	-0.034657866
169	0x3d510fa8	0.05104032
170	0xbc62f579	-0.013852471
171	0x3cbf3bfd	0.023344034
172	0xbd59f661	-0.05321348
173	0xbd5568a0	-0.05210173
174	0xbd4d3a76	-0.05010458
175	0xbd9d8dfc	-0.07693097
176	0xbd2c4b9c	-0.042064294
177	0x3d0339f5	0.032037694
178	0x3d00002f	0.031250175
179	0xbd66e104	-0.056366935
180	0xbc7f5bcf	-0.015585854
181	0xbd1357c6	-0.03597238
182	0xbd793c79	-0.060848687
183	0xbd5bf436	-0.053699695
184	0x3d7c12eb	0.06154148
185	0xbcc9488e	-0.02457073
186	0x3c16e6e8	0.009210326
187	0x3d4e1d92	0.05032117
188	0x3ca47052	0.02007309
189	0xbd1f29e0	-0.038858294
190	0xbc73d38d	-0.014881981
191	0x3ca1af5e	0.019736942
192	0x3c0d1dfa	0.008613104
193	0x3cff3526	0.031153273
194	0xbc58980d	-0.0132198455
195	0x3ccaf028	0.024772719
196	0x3c0f436d	0.008744103
197	0xba3212d0	-0.00067929644
198	0xbc87dc86	-0.016584646
199	0xbc6b2776	-0.01435267
200	0x3c9d4e14	0.01920227
201	0x3cac7897	0.021053595
202	0x3cda620f	0.026658086
203	0xbd375c6d	-0.04476588
204	0x3d392953	0.045205425
205	0x3d63300a	0.055465735
206	0x3d07f2fe	0.03319072
207	0x3d57af33	0.052657317
208	0xbd417abf	-0.0472362
209	0x3d37f0a8	0.044907242
210	0x3d1a4aee	0.037669115
211	0x3cad1f23	0.021133011
212	0xbc88f261	-0.016717138
213	0xbd4578d0	-0.04821092
214	0xbd9d4a58	-0.076801956
215	0x3cde085e	0.0271036
216	0x3d5226b5	0.051306445
217	0x3ba1362b	0.0049197874
218	0x3d2698a2	0.040672906
219	0x3bcb7f9d	0.006210281
220	0x3d233afd	0.039851177
221	0xbd886e0d	-0.066616155
222	0xbd5ef0d2	-0.054428883
223	0xbd419491	-0.047260825
224	0xbd02b223	-0.031908166
225	0x3c314a5e	0.010820953
226	0xbd15c557	-0.03656515
227	0xbc4d3c90	-0.012526646
228	0xbd98a652	-0.07453598
229	0xbd8b7c04	-0.068107635
230	0x3d3f8cdf	0.046765205
231	0x3d80355b	0.06260177
232	0x3d668623	0.056280266
233	0x3cb60e1a	0.022223521
234	0xbad7c7fd	-0.0016462799
235	0xbd3a9981	-0.04555655
236	0xbd15e2ca	-0.036593236
237	0xbcda52e4	-0.026650853
238	0x3d7fe197	0.062471
239	0xbd44866c	-0.047979757
240	0xbd8fa7e9	-0.07014448
241	0xbd4107f3	-0.04712672
242	0xbc865e2b	-0.016402325
243	0x3d251400	0.040302277
244	0x3d410424	0.04712309
245	0xbd43d6e5	-0.04781236
246	0x3b036cda	0.0020053894
247	0x3c58634c	0.013207268
248	0xbb8cc453	-0.0042958646
249	0x3d9f05e9	0.07764799
250	0xbd63dc52	-0.055630036
251	0xbc1a821e	-0.009430436
252	0xbc236060	-0.009971708
253	0xbd9f1a45	-0.077686824
254	0xbcf33431	-0.029687973
255	0x3d84844a	0.06470545

sequential_2/conv2d_4/Conv2D f4 [64, 3, 3, 64]
0	0x3b14418b	0.0022622074
1	0xbcbb8f5e	-0.022895511
2	0xbd2b2840	-0.041786432
3	0xbc68d4f8	-0.014210932
4	0x3d845264	0.06461027
5	0x3c98503b	0.018592944
6	0xbd82a122	-0.0637839
7	0xbd3fe880	-0.04685259
8	0x3ba57fe5	0.0050506466
9	0x3d479640	0.048727274
10	0xbda9414c	-0.082644075
11	0x3d4674b6	0.048451148
12	0xbd87c998	-0.06630248
13	0x3bf563c7	0.007488701
14	0x3c968382	0.018373255
15	0xbd5ae59f	-0.05344164
16	0x3d8bd9c0	0.06828642
17	0xbb239436	-0.0024960167
18	0x3d4f19de	0.05056178
19	0xbd3d25c0	-0.04617858
20	0xbd3517c4	-0.044212118
21	0x3c87d656	0.016581696
22	0xbdb624bb	-0.088937245
23	0xbcef0e35	-0.02918158
24	0x3d686fbf	0.056747194
25	0xbd93c4bb	-0.07215258
26	0xbd926a6d	-0.07149205
27	0x3cc295df	0.023753105
28	0x3d2d0fee	0.04225152
29	0xbd9f6ed5	-0.077848114
30	0x3c2743f7	0.010209075
31	0x3d640099	0.055664632
32	0xbda7213a	-0.08160634
33	0x3d4540eb	0.048157614
34	0xbdaa3c9b	-0.08312341
35	0x3b49d125	0.0030794826
36	0x3d817ebb	0.06323
37	0xbdc497a5	-0.095992364
38	0x3d1f69b9	0.038919184
39	0xbb7261d4	-0.003698458
40	0xbd5189f9	-0.05115697
41	0xbd1d85e1	-0.038457755
42	0xbbbd2e93	-0.0057733743
43	0xbcfb2451	-0.030656965
44	0x3d84fb6a	0.06493266
45	0xba1eca00	-0.0006057322
46	0x3d135558	0.035970062
47	0xbb19531e	-0.002339549
48	0xbd3a5ab4	-0.045496657
49	0xbd9374cd	-0.07200012
50	0xbc88e0ab	-0.016708693
51	0xbcdc0796	-0.026859086
52	0xbcc5820e	-0.024109866
53	0xbb7a1505	-0.0038159501
54	0xbd9bb5d3	-0.076030396
55	0x3c2b8136	0.010467818
56	0xbda59fe9	-0.08087141
57	0xbdd1981b	-0.1023409
58	0xbb83cb62	-0.004022048
59	0xbd92609d	-0.07147334
60	0xbd46dae2	-0.048548587
61	0xbcdb40dd	-0.026764328
62	0xbc998c3e	-0.01874363
63	0xbd78e816	-0.06076821
64	0xbd12543e	-0.03572487
65	0x3cb83b04	0.022489078
66	0xbd8f138d	-0.06986151
67	0xbd1ef7d9	-0.038810585
68	0x3cc0ded7	0.023543758
69	0xbda4a0e0	-0.08038497
70	0xbd04ef38	-0.0324547
71	0xbd30477c	-0.043036923
72	0xbcadf7b9	-0.021236287
73	0xbcd36fb0	-0.025810093
74	0x3c0c6bb5	0.008570601
75	0xbd9215e7	-0.07133084
76	0xbe15f2c7	-0.14643393
77	0xbd1ff50e	-0.03905206
78	0xbd585317	-0.052813616
79	0xbd98cd83	-0.07461073
80	0x3ca9698c	0.020680211
81	0x3d4a75aa	0.04942862
82	0xbbed064b	-0.007233416
83	0xbc3936d7	-0.011304579
84	0x3c2e5e20	0.010642558
85	0xbd1b83f0	-0.037967622
86	0xbce6f2e7	-0.028191997
87	0x3c72c23c	0.014816817
88	0xbd8960f5	-0.06707946
89	0xbbb14aa1	-0.005410508
90	0xbd095515	-0.033528406
91	0x3c2aa6f8	0.010415785
92	0xbc09cd20	-0.008410722
93	0xbb33d1ee	-0.002743836
94	0xbd04203b	-0.0322573
95	0x3c8e453b	0.017366996
96	0xbd99eaa2	-0.07515456
97	0xbc4f5f9d	-0.012657073
98	0xbd80a381	-0.06281186
99	0xbd9f8c28	-0.077904046
100	0xbd2978a9	-0.041374836
101	0x3d0c4f2b	0.034255188
102	0xbdc260af	-0.09491097
103	0xbcd3eb14	-0.02586893
104	0xbd65e0e1	-0.056122664
105	0x3d56aa1e	0.05240833
106	0xbd21a882	-0.039467342
107	0x3d5f4a3d	0.05451416
108	0xbd6a4864	-0.057197943
109	0x3c90293c	0.017597787
110	0x3d125bc2	0.03573204
111	0x3d887e74	0.06664744
112	0xbd813567	-0.06309014
113	0xbb28eeaf	-0.0025777032
114	0xbcb46efa	-0.022025574
115	0xbd90bec0	-0.07067633
116	0xbca177ff	-0.019710539
117	0x3d34ca39	0.044138167
118	0xbdcb480d	-0.09925852
119	0xbcb69e42	-0.02229226
120	0xbd9333fb	-0.07187649
121	0xbd8025d1	-0.06257213
122	0xbd1f7e92	-0.038939066
123	0xbd15d6f0	-0.036581933
124	0xbd05b2e9	-0.032641325
125	0x3d2607ba	0.040534712
126	0x3d10827f	0.0352807
127	0x3ce5476a	0.027988154
128	0x3c06cf92	0.0082282
129	0x3d62d7f5	0.055381734
130	0x3d5f06f9	0.05445001
131	0xbd725eea	-0.05917255
132	0x3d300652	0.042974778
133	0xbd8d4ee8	-0.06899816
134	0x3c26ce66	0.010181045
135	0xbd321314	-0.043475226
136	0x3d264235	0.040590484
137	0xbd82793f	-0.06370782
138	0xbd270d44	-0.040784135
139	0x3d0dbe53	0.034605335
140	0xbdb96e90	-0.09054291
141	0xbd7e5057	-0.062088337
142	0x3c0b3b71	0.008498059
143	0xbc3aa442	-0.011391701
144	0x3c98f22d	0.018670166
145	0xbc476194	-0.0121692605
146	0x3ce232eb	0.02761217
147	0xbd243bf8	-0.040096253
148	0xbc583038	-0.01319509
149	0x3d43d0cf	0.047806557
150	0xbd14e03d	-0.036346663
151	0x3d9dbac9	0.07701642
152	0x3d1a94dd	0.037739623
153	0x3d4b8c30	0.04969424
154	0xbdbdd563	-0.09269216
155	0xbd8d5319	-0.06900615
156	0x3d90221c	0.07037756
157	0x3d8497ac	0.064742416
158	0xbc1cecd8	-0.009577952
159	0xbcecd8b6	-0.02891193
160	0x3d4a871d	0.04944526
161	0xbca884ee	-0.020571198
162	0x3d4254a7	0.047444012
163	0x3d4c8e6a	0.049940504
164	0xbc82e133	-0.015976524
165	0x3d615068	0.055008322
166	0xbd995aa5	-0.07487992
167	0xbc4f06a8	-0.012635864
168	0xbcff7546	-0.03118385
169	0xbce62791	-0.028095039
170	0x3c8ba969	0.017048554
171	0x3ccb586d	0.024822438
172	0xbd199fa3	-0.037505757
173	0x3d222b90	0.039592326
174	0xbceba0f7	-0.028763277
175	0x3b92ba68	0.0044777878
176	0x3bf6c210	0.0075304583
177	0x3b683c06	0.0035436167
178	0x3d547d42	0.051877268
179	0xbc2a8188	-0.010406859
180	0xbd25425c	-0.04034649
181	0xbba4c5d4	-0.0050284658
182	0xbabaf0c6	-0.001426243
183	0x3cb1c209	0.021698968
184	0xbd92e53c	-0.07172629
185	0x3c2317ad	0.009954375
186	0x3c4e2db9	0.012584143
187	0xbc0d414e	-0.008621527
188	0x3c8ef3a4	0.017450161
189	0xbda1d84f	-0.07902586
190	0x3bca34d8	0.0061708502
191	0x3bbfac31	0.0058493842
192	0xbd90addd	-0.07064412
193	0x3d0e2b14	0.03470905
194	0x3d189fff	0.03726196
195	0xbdb3a5c0	-0.08771849
196	0x3d6c36dd	0.05766951
197	0x3c431dd2	0.011908965
198	0x3d39fe2a	0.045408405
199	0xbd4e91f3	-0.050432157
200	0x3b53fede	0.0032347958
201	0xbd734efd	-0.0594015
202	0xbd3c84c4	-0.046025053
203	0x3c754ea6	0.0149723645
204	0xbd124060	-0.035705924
205	0x3c0bddbc	0.008536752
206	0xbd27f056	-0.041000687
207	0x3ca43b5e	0.02004784
208	0xbd072bda	-0.033000804
209	0x3cd749bc	0.026280276
210	0xbd660013	-0.056152415
211	0xbcc56561	-0.024096193
212	0xbcbaf4c0	-0.022821784
213	0xbd164ae1	-0.036692504
214	0xbd3464fb	-0.044041615
215	0xbdaa7b00	-0.08324242
216	0xbd97287a	-0.07380767
217	0xbd097f59	-0.033568714
218	0x3ca26e76	0.019828063
219	0xbd359a73	-0.044336747
220	0x3d902334	0.070379645
221	0xbd3f5125	-0.046708245
222	0xbd8a6c03	-0.06758883
223	0xbd434a8b	-0.04767851
224	0xbdcd2a59	-0.10017843
225	0xbcdd8492	-0.027040754
226	0xbd4e98a5	-0.050438542
227	0x3d05fc6c	0.03271143
228	0xbd90b096	-0.07064931
229	0x3b86817d	0.0041047917
230	0x3d2b3ee0	0.04180801
231	0x3d2f2b0f	0.042765673
232	0xbda54f01	-0.080717094
233	0x3d7fcc91	0.06245095
234	0xbcac7dc4	-0.021056063
235	0x3d2fd6cb	0.042929452
236	0xbca2aa71	-0.019856663
237	0xbd932822	-0.07185389
238	0xbc7c5fcf	-0.015403702
239	0xbc504d3a	-0.012713725
240	0xbca8fa66	-0.020627212
241	0xbdc94e23	-0.098293565
242	0x3d70f193	0.058824133
243	0xbb165d3b	-0.0022943753
244	0x3d122922	0.03568376
245	0xbd414208	-0.047182113
246	0xbb39db83	-0.00283596
247	0x3d20ae51	0.03922874
248	0xbd8b9512	-0.06815542
249	0xbcf435df	-0.029810844
250	0x3c818647	0.015811099
251	0xbd3106bf	-0.043219324
252	0xbd0a9d5f	-0.033841487
253	0xbda7dba5	-0.08196191
254	0xbd766caf	-0.060162243
255	0x3c080d4b	0.008303951
